"/home/shine/.config/google-chrome/Profile 1"/Default/optimization_guide_prediction_model_downloads/9b934a04-68ec-4f87-a03e-5a17cce02dcb/model.tflite (tflite, 67216 bytes, 5 tensors)

dnn/hiddenlayer_1/bias/part_0 f4 [64]
000000 9f 5a 56 3d d3 9a 46 bd 23 dd 33 bd b6 2b 18 bc
       0.052332517 -0.048487496 -0.043912064 -0.009287765
000010 4f a5 2f bd ce 76 e7 ba f0 12 8e bc ee 3f ba 3d
       -0.04288226 -0.0017659308 -0.017343014 0.09094225
000020 ee 46 ee bc 73 13 b8 bd 71 1c 8f bb 2a 7b ab 3d
       -0.029086556 -0.08988085 -0.004367404 0.08373101
000030 53 a2 a2 bc 82 5d 39 bd 48 e6 7e bc 57 1e dc bc
       -0.019852793 -0.04525519 -0.015557833 -0.026869936
000040 39 7a d9 bc bb f3 83 bc b6 bf 25 bd f0 be fb bb
       -0.026547538 -0.01610743 -0.040466033 -0.0076826736
000050 43 83 82 bd f9 0c 49 bd 8e 3e 3f bd 96 74 40 bd
       -0.063726924 -0.049084637 -0.046690516 -0.046986185
000060 db 5b 0f 3e bd 82 35 3d 19 e7 8a bd cd 75 c4 bc
       0.13999884 0.044314135 -0.0678236 -0.023981953
000070 61 b8 b3 bd 03 22 de bb 78 3a 1a bd 17 9f 14 bd
       -0.08775402 -0.006778957 -0.037653416 -0.036284532
000080 a4 48 24 bd 80 32 6d 3d 66 26 09 3e f0 93 12 bd
       -0.040108338 0.05790949 0.13393554 -0.035785615
000090 19 f7 fc 3d a1 d8 31 3d 30 1e e8 3d 3c 67 80 bb
       0.12351818 0.043419484 0.11333883 -0.0039185565
0000a0 19 cd be 3b 47 04 55 bd 90 44 11 3e 4e cf 36 bd
       0.0058227894 -0.052006032 0.14186311 -0.044631295
0000b0 ce 9e 3c 3a e8 cb 0a bc 5c 0d f0 3d 2d f6 62 3c
       0.00071952946 -0.008471467 0.11721298 0.013852638
0000c0 e4 82 c7 bc 82 f4 2c bd 29 1a ed 3d e5 7a ca 3c
       -0.024354406 -0.04222537 0.11577255 0.024716804
0000d0 82 a5 07 3c 1b fa 2c bd ae c9 fe 3d 36 a3 c8 3c
       0.008279206 -0.042230707 0.12440811 0.024491888
0000e0 4a 3c d6 3d c1 87 80 bd 85 6c 44 bd 6d 9b 8c bd
       0.10460718 -0.06275893 -0.047955055 -0.068655826
0000f0 60 46 ed bc 88 19 98 bc 65 eb 05 bc 9e 2f 28 3d
       -0.028964221 -0.018566862 -0.008173798 0.041061036

dnn/hiddenlayer_0/bias/part_0 f4 [128]
000000 a2 5b 8c 3c d1 7e a9 3c 35 5f e8 3d c8 19 b3 b9
       0.017133538 0.020690354 0.11346284 -0.0003416075
000010 78 c2 15 3d 92 dd 68 bb 39 8f 31 3d 6c be 72 bc
       0.036562413 -0.0035532457 0.04334948 -0.014815908
000020 c3 0c a1 bd 1c ba f2 3d c5 73 85 3d c3 49 05 bd
       -0.07863762 0.11851904 0.06516222 -0.032541048
000030 4b 9e e5 3c d8 d0 c1 bc f8 72 e5 3a 3a e7 54 3d
       0.028029582 -0.023659155 0.0017505577 0.051978327
000040 b7 6b d4 3d dc 9c a8 3d e2 9d 53 3b e4 04 9d 3b
       0.103721075 0.082330436 0.003229015 0.004791843
000050 e0 2f 9e 3d ed 9d 0d bd 8b ec 9e 3c 99 6e 09 bd
       0.07723975 -0.034574438 0.019399902 -0.03355274
000060 01 b7 07 bd 5e 76 36 3c fb 5c c4 bc 16 54 9b 3d
       -0.03313351 0.011136619 -0.023970118 0.075843975
000070 6a e7 00 3b 9a 8d 82 bc eb ef 97 3c 77 fa ea 3c
       0.0019669184 -0.015936662 0.018547019 0.028683884
000080 31 69 36 3d d4 69 a1 bd a7 c9 7b 3d 1f 0d 4b 3d
       0.044533912 -0.07881513 0.061471608 0.04957306
000090 af f2 2b bd 3d b6 c8 bd 3f d4 a8 3d e0 0c 50 3d
       -0.041979488 -0.09800384 0.08243608 0.05079353
0000a0 0a 70 74 bb 7f 33 61 bd 8a 75 16 bc e1 a2 e3 bc
       -0.0037298226 -0.05498075 -0.009183297 -0.027787628
0000b0 de 5b df 3d 65 a9 e5 bc 39 c6 b4 3c 33 01 84 3b
       0.10906194 -0.028034875 0.022067176 0.0040284633
0000c0 d7 29 25 3d b9 0e df 3c d2 49 74 bc 60 03 05 be
       0.040323105 0.0272287 -0.014910178 -0.12989569
0000d0 8b 89 98 bc ec 91 3c 3b 34 01 5c bb f3 1d 21 bd
       -0.018620273 0.00287735 -0.0033570053 -0.039335202
0000e0 43 a6 bf 3d b4 f7 9d 3d 37 5b 8d 3d 18 52 6c bd
       0.09357884 0.07713261 0.069021635 -0.05769548
0000f0 1b 24 25 bd 7a 72 1e be ad 07 08 be a6 9e 3d 3d
       -0.040317636 -0.15473357 -0.13284178 0.046293877
000100 ca e2 fc bb 0a 80 ef 3c fd 04 cc bb 73 8c c3 3c
       -0.007717465 0.029235858 -0.0062261806 0.023870682
000110 83 97 f7 ba d6 d1 0b 3c 65 86 87 bd fd 98 b1 3d
       -0.0018889759 0.0085339155 -0.066174306 0.08671758
000120 e8 d4 77 3c 75 27 95 bc e0 d6 06 3e 7f c9 9e 3c
       0.015126444 -0.018207291 0.13167906 0.01938319
000130 c6 f4 e6 3b 28 75 5b 3c 1f 6e 30 3d 1b b8 6e bd
       0.0070482222 0.013394631 0.04307377 -0.058281045
000140 24 7e 40 bd dd 36 73 3c b1 74 b7 3c 99 cf ca 3d
       -0.046995297 0.014844623 0.02239451 0.09902877
000150 b8 52 84 3d 05 76 76 bd 2e 61 24 3d 83 0b b5 bc
       0.0646109 -0.060171146 0.04013174 -0.022100216
000160 d7 95 ec ba 76 b6 d6 bb 2c 11 a4 bb 72 c5 28 bd
       -0.0018050027 -0.0065525128 -0.00500693 -0.041203924
000170 2c 67 ac bd 45 dd 9b bd c4 4f fb bc b2 53 7f bd
       -0.08418116 -0.07610563 -0.030677684 -0.062335677
000180 38 ef f0 3d 17 0c e8 3b a4 fb b5 bd 3e 3e a9 3d
       0.11764377 0.0070815193 -0.08885887 0.08263825
000190 53 4a 55 3c e9 cd e9 3c 02 ac b5 bb c1 75 c0 bc
       0.013018209 0.028540568 -0.0055441866 -0.02349365
0001a0 ce 10 83 b9 af 25 99 bc d0 53 70 bc fa 16 e2 bc
       -0.00024998788 -0.018694727 -0.01466842 -0.027598847
0001b0 0e 77 35 bd e9 8a 3d 3d 58 59 92 3d 9a 3e 3c 3e
       -0.044302993 0.046275053 0.07145947 0.18383256
0001c0 45 10 1b bc db f1 d8 3c 68 a6 40 bc 89 d5 6f 3d
       -0.009464328 0.026482513 -0.011758424 0.058553252
0001d0 a3 ab 01 3d 7f 39 8b 3d c7 4b 72 be cf 28 2e bd
       0.031657826 0.06798076 -0.2366172 -0.042519387
0001e0 03 dd b2 bd 78 dc 65 bd 3f 07 97 3b 25 48 1a bd
       -0.08733561 -0.05611846 0.004609018 -0.03766646
0001f0 9f 2a a8 3b ce d1 b5 3c 81 96 a8 bc dd 60 a1 3c
       0.005132034 0.02219477 -0.020579578 0.019699508

dnn/hiddenlayer_0/MatMul f4 [128, 12]
000000 72 d1 7d be ee c1 7c 3d 66 14 5e 3e e7 f2 dd 3d
       -0.24786928 0.061708383 0.21687469 0.108373456
000010 a8 e5 9c bd 98 09 02 be 78 ba 06 be 69 f8 b8 bd
       -0.07660991 -0.12698972 -0.1315707 -0.090317555
000020 c3 39 3b 3e e6 6b 8c 3d da 0a ee 3d fc 04 d4 bd
       0.18283753 0.068565175 0.116231635 -0.10352513
000030 a7 77 2b 3e 0d cb 0a 3e e4 d6 7b be 30 9a 29 be
       0.16744862 0.1355402 -0.24593693 -0.16562724
000040 c9 7a 90 bd 6c a1 37 bd 85 d3 27 3e a4 97 33 3e
       -0.070546694 -0.04483168 0.16389282 0.17538315
000050 b6 66 71 3d 1b a4 07 be 47 e6 84 bb 4e 02 50 be
       0.058935843 -0.13246195 -0.0040557715 -0.20313379
000060 10 c3 ee 3d 8b 7e 3f be 61 e2 a8 bc 5e 3e 04 be
       0.11658299 -0.18700616 -0.020615758 -0.12914416
000070 b0 84 2e 3e 56 95 b8 bb b2 f4 da bd 7e 54 0a be
       0.17042804 -0.0056330366 -0.10691203 -0.13508794
000080 b8 a3 41 bd 81 3a b3 3d 2c 94 c0 3d 04 58 af 3d
       -0.047275275 0.08751393 0.094032615 0.085617095
000090 42 51 0b be 59 0d 50 be 33 0d d7 3d 9c 2c 12 3d
       -0.13605216 -0.20317592 0.105005644 0.035687074
0000a0 80 95 a1 3d 8c 3f 50 3e 12 80 da bd 24 65 14 be
       0.07889843 0.20336741 -0.10668959 -0.14491707
0000b0 de 34 55 be 12 3d fb 3d fe 31 2a bb 15 5c 2d 3e
       -0.20820948 0.122675076 -0.002596974 0.16929658
0000c0 03 05 f9 bb a0 3d c0 3d e0 aa a7 3d 08 82 b3 bc
       -0.0075994744 0.09386754 0.08186889 -0.02191259
0000d0 00 a2 30 3d 92 13 24 3d fd 39 04 be ed e4 09 be
       0.043123245 0.040057726 -0.12912746 -0.13466235
0000e0 7a 92 ca bd d8 8c 8f 3e b7 a0 0b 3e f0 05 ce bd
       -0.098912194 0.28037143 0.13635527 -0.10059726
0000f0 eb ef 2b be 7d 23 c8 bd 26 f9 00 be 47 8c 44 bd
       -0.1679074 -0.09772394 -0.12595043 -0.04798534
000100 ef e2 28 3e 78 54 96 bd c1 f8 07 3e 5f b1 1a 3e
       0.16492818 -0.0734033 0.13278486 0.15106724
000110 39 8e 9e 3d 41 6d 1d 39 d3 16 1c 3c c5 9d a2 bd
       0.077419706 0.00015013387 0.009526926 -0.079402484
000120 79 28 e5 3d 1e 91 19 3d 23 79 0b bd a9 49 89 3d
       0.1118936 0.03749191 -0.03405107 0.06703503
000130 77 10 8f bd 64 c2 4d be ab fe 7d bd d6 c1 20 3e
       -0.06985562 -0.20093685 -0.06201045 0.15698943
000140 0a c0 2e 3e 2d be 86 bd 86 f3 a4 bd 15 70 05 bd
       0.17065445 -0.06579242 -0.08054261 -0.032577593
000150 c7 17 be ba 58 30 1b bd dc 95 46 3e d2 75 c2 bd
       -0.0014502936 -0.0378879 0.19393104 -0.09495129
000160 3c 1c e0 bc c3 16 78 3c 6a 65 2b be e2 f6 2c 3e
       -0.027357213 0.015142146 -0.16737905 0.16891053
000170 20 c9 04 be ca 06 4e 3e 3e 82 24 be d9 93 d9 3d
       -0.12967348 0.20119777 -0.16065308 0.10623903
000180 f5 2f 5d be 1e ed 3d be 50 5d f9 bd c1 92 04 be
       -0.21600325 -0.18547484 -0.12176001 -0.12946607
000190 36 8a e4 3d 97 51 f7 3d 54 3b 47 be b5 53 32 3e
       0.11159174 0.12076109 -0.19456226 0.17414744
0001a0 c8 39 ff 3c 91 c6 33 3e d6 8e 0a be 9a fa 41 3e
       0.031155482 0.17556216 -0.1353105 0.18943253
0001b0 da a5 ca 3c ef 65 45 be 92 80 68 3d 18 8f 08 3e
       0.024737287 -0.19277166 0.05676324 0.13335836
0001c0 5f 3b 9e bd b4 2e 8e 3c 5b ce 5f be 96 32 0b 3e
       -0.07726168 0.017356254 -0.21856062 0.13593516
0001d0 16 7f 01 3e b9 27 02 be 3b 6f b9 bc a5 e9 0c 3e
       0.12646136 -0.12710465 -0.022636047 0.13761003
0001e0 22 6e 1c 3e 62 66 89 3d 59 71 d1 bd f2 ab df 3d
       0.15276387 0.06708981 -0.102266975 0.10921468
0001f0 a5 e1 6d 3e 55 d6 09 bd ea 6a ed 3d 38 95 ee 3d
       0.23230608 -0.03365167 0.11592658 0.11649555
000200 b6 33 9e bd 4c c9 de bd 65 72 b6 3d 3c 90 72 3d
       -0.07724707 -0.10878238 0.08908538 0.059219584
000210 26 da 12 be 35 cc d8 bd 97 11 12 3e 3f 14 54 be
       -0.1434103 -0.105858244 0.14264522 -0.20710848
000220 e4 3d e0 bc 11 a2 5e 3e 44 89 db bc 1b 60 08 3e
       -0.027373262 0.21741511 -0.026798852 0.13317911
000230 7d af 2e bd c6 15 28 3e 8b 79 e9 ba 5b c4 42 3e
       -0.042647827 0.16414556 -0.0017812712 0.19020216
000240 d8 26 d3 bd 9f f2 8b 3c 7b a4 ad 3c d7 a2 34 3d
       -0.10310143 0.017083464 0.021196594 0.04410061
000250 98 10 32 3d 37 4a 14 3e 6f 48 d3 bd 60 33 ec bd
       0.043472856 0.14481436 -0.1031655 -0.115332365
000260 02 f8 8e bd d8 d0 08 3d e2 45 78 bd ad 87 41 be
       -0.069808975 0.033402294 -0.06061352 -0.18899412
000270 46 d5 5b be 00 c7 af 3d 27 3c a8 3d 45 a5 8b bd
       -0.21468076 0.08582878 0.08214598 -0.06818632
000280 2c 08 5d 3e f1 41 60 be b8 c5 7e bc 20 98 d8 3d
       0.21585149 -0.21900155 -0.0155500695 0.105758905
000290 9e 7e d2 bd 4f 9b 69 bb 3d 8f 1c ba 4a 6a af 3c
       -0.102780566 -0.003564555 -0.0005972272 0.021412987
0002a0 ea 17 d0 3c 83 8d 38 bd dd 5f f8 3c b3 e0 93 3d
       0.025402028 -0.04505683 0.030319149 0.07220592
0002b0 71 f2 fb 3d a4 92 30 3e 38 d2 ca bc ab 1f 1a be
       0.123021014 0.17243439 -0.024758443 -0.15051143
0002c0 49 b4 82 3d 34 81 57 be 3f d6 ed 3d cd 4f 37 be
       0.06382043 -0.21045381 0.1161313 -0.17901535
0002d0 91 29 dc 3c 81 4d e8 bd 96 30 31 3e 91 68 73 bd
       0.02687529 -0.11342908 0.1730369 -0.059425894
0002e0 02 db b6 bd e0 44 29 3d 74 02 85 be d6 02 0e bd
       -0.08928491 0.04132545 -0.25978434 -0.034670673
0002f0 21 09 fa 3d bc 80 28 be f7 31 22 bc a1 d4 1f 3e
       0.122087725 -0.16455358 -0.009899608 0.15608455
000300 69 d1 c3 3c b1 19 a7 3d 05 ec 31 3e f7 71 34 3e
       0.023903565 0.08159197 0.1737519 0.17621599
000310 a4 14 47 bb e4 95 02 3e 08 48 42 3e 07 86 3a 3e
       -0.0030377293 0.12752491 0.1897279 0.1821519
000320 54 8e 97 3c 3f f9 e1 bd 40 3e 07 3e f2 a5 bf 3e
       0.018500485 -0.11033868 0.1320734 0.37431294
000330 4f 75 1c be e4 7c 05 3e 5f cf 83 3c ad 63 3e be
       -0.15279125 0.13035923 0.016090093 -0.18592711
000340 97 6f 49 bd 83 df ac 3d cd 41 ac bd eb 21 0b 3e
       -0.049178686 0.08441069 -0.08410988 0.13587157
000350 e9 66 49 3e 35 16 37 be 80 b3 a4 3c 19 99 c8 3d
       0.19668163 -0.17879565 0.020105124 0.09794826
000360 a0 34 86 3d 46 f0 b1 3d 39 67 4f 3c 6a 57 4f be
       0.06553006 0.08688407 0.012658888 -0.2024819
000370 36 a3 02 3e 70 f9 8e bd 5d 8b 1d bd b4 72 24 3e
       0.12757573 -0.0698117 -0.038462985 0.16059381
000380 88 aa 04 3e 5a af a4 bd 62 2a 53 3e 45 68 14 3d
       0.12955678 -0.08041258 0.20621637 0.03623225
000390 4a e7 e5 3d 51 91 fc bd 1e 19 fa 3d a7 1a cd bd
       0.112257555 -0.123324044 0.12211822 -0.10014849
0003a0 07 f4 0b 3d 19 26 70 be 82 12 39 bd c1 85 06 3e
       0.03416827 -0.23452033 -0.045183666 0.1313696
0003b0 ab 2c 5e be 1f bf 49 3e 95 d2 70 bd 30 d8 1a be
       -0.21696727 0.19701813 -0.058794577 -0.15121531
0003c0 9b a1 b1 bd 92 0f 8d 3d 07 b6 11 3e 2c 01 20 3e
       -0.08673402 0.068877354 0.14229594 0.15625447
0003d0 08 e5 32 3d 42 7b 11 be 3c bf 02 3e cc 06 dd bd
       0.043675452 -0.14207175 0.12768263 -0.10792312
0003e0 30 fb 1b 3d 0a 40 f4 bd 93 d8 54 bc 26 a5 2f be
       0.038081348 -0.11926277 -0.012991088 -0.17152843
0003f0 c1 f7 0f bd e0 ce 4c 3e 57 52 8b bd e3 89 67 3d
       -0.035148386 0.20000792 -0.068028145 0.056527983

dnn/hiddenlayer_1/MatMul f4 [64, 128]
000000 42 8b e2 3d fc ed 38 be d7 cc 20 3e 08 79 b8 bd
       0.110617176 -0.18059534 0.1570314 -0.0900746
000010 19 7c c6 3d d6 9a 0d ba 85 c4 22 3b fd 4b 92 3d
       0.096916385 -0.00054017955 0.0024836373 0.071434
000020 1b c7 33 bd 4a b3 8a 3b d1 f4 64 3d 6c 79 8a bc
       -0.043891054 0.0042327987 0.055897538 -0.016903602
000030 48 fc 38 bc de d2 9b bd ed 83 0b be 57 88 4b bd
       -0.011290617 -0.07608579 -0.13624544 -0.04969057
000040 25 21 ef bd c1 e3 d5 3c 20 fc ba 3d 1d 7f b0 bd
       -0.11676244 0.026109578 0.0913012 -0.08617995
000050 cb 5f 31 3c 8e 26 04 be 09 b4 1c bb 43 ab 93 3d
       0.0108260615 -0.12905332 -0.002391102 0.072104
000060 d7 8a aa 3d 4a 64 10 bc 2c 17 64 3d f6 96 2f be
       0.08327263 -0.008812973 0.05568616 -0.17147431
000070 d1 b4 fa 3c 6f 15 1c be 87 1c 08 3d 41 c8 2e 3e
       0.030603798 -0.15242551 0.03323033 0.17068578
000080 84 30 20 3e 38 43 f2 bd fb 4c dd bd 49 cc 0c 3e
       0.15643507 -0.11829227 -0.108056985 0.13749804
000090 ef 97 16 be 86 bf 0f 3c 7c 2c e3 3d 59 14 b4 3d
       -0.14706396 0.00877369 0.11092469 0.087929435
0000a0 05 79 86 bd b2 8e e9 3d 7b 34 b0 bc 7e 02 69 bd
       -0.065660514 0.1140417 -0.0215094 -0.056887142
0000b0 bb 16 c2 3d 9c ee a6 ba 49 d7 5b bc 28 c7 51 3c
       0.09476992 -0.0012735906 -0.013418027 0.01280383
0000c0 94 9b dc 3d 03 82 37 3e 01 3d ff 3d e2 b3 c3 3d
       0.10771862 0.1792069 0.124628074 0.09555794
0000d0 8f 42 f4 bd bd 67 9d ba 57 f4 4d bc 94 c5 2d be
       -0.119267575 -0.0012009066 -0.012570462 -0.16969901
0000e0 0a 86 38 be c7 8c 5f 3d ed 23 88 3d 44 82 06 be
       -0.18019882 0.054577615 0.06647477 -0.1313563
0000f0 21 64 33 be 67 5a 0f bd 25 b4 32 be 8b be 02 be
       -0.17518665 -0.034998324 -0.17451532 -0.12767999
000100 7b ff b5 bd 96 1f 57 bd 4c 40 1e 3c 72 ea f2 3d
       -0.0888662 -0.052520357 0.009658884 0.11861123
000110 8e 21 42 be 0e 4b bd 3d b6 f7 be bb e6 65 7d 3a
       -0.18958113 0.09242831 -0.0058278693 0.0009666368
000120 72 f8 4f 3b b9 ad 8d 3d 32 c1 3a be 1c 5c 99 bd
       0.0031733778 0.069179006 -0.1823776 -0.074882716
000130 67 c4 a7 bd 69 b3 16 be cb 36 26 bc b7 4b 20 be
       -0.08191758 -0.14716877 -0.0101449 -0.15653883
000140 5e bb 16 be 01 d7 2b 3e dd a9 7c 3c 3b a1 3d 3e
       -0.14719912 0.16781236 0.015421358 0.18518536
000150 d8 d6 88 3d 51 81 2b 3e 97 2b d0 bd 28 22 8d 3d
       0.06681603 0.16748549 -0.10164564 0.068912804
000160 4b d6 10 be bc d3 aa 3d eb e1 4f 3d 2d 8c c9 bd
       -0.14144246 0.083411664 0.05075256 -0.098411895
000170 c0 1b 3e 3c dc fe c1 3d 87 70 09 be 24 e4 0b be
       0.011603296 0.09472439 -0.13421832 -0.13661247
000180 4f 41 53 bd 02 62 58 3c ff 60 63 bd 12 25 ef 3c
       -0.051575955 0.013206961 -0.055512425 0.029192481
000190 40 05 1a 3c 78 0d 32 be cb 8f 72 bd 4e be 95 bc
       0.009400666 -0.1738795 -0.059219163 -0.01827922
0001a0 84 06 88 3d e5 ed 65 bd 0e 5e b9 bd 2b b0 4d 3c
       0.06641868 -0.056135077 -0.09051143 0.012554209
0001b0 09 fe 10 be 95 fd 2a 3e e0 5b f3 bd e5 83 91 bc
       -0.14159407 0.16698296 -0.11882758 -0.017763088
0001c0 ab 3b 36 be 68 b4 29 be f4 0e 8a 3d 66 29 a2 bd
       -0.17796199 -0.16572726 0.06741133 -0.079180524
0001d0 48 9f c9 3d 62 55 2d be 30 14 41 be 1f 43 8e bc
       0.098448336 -0.16927102 -0.18855357 -0.01736599
0001e0 af 70 4c be c2 04 dc 3d 64 68 a8 3d f1 77 db 3d
       -0.1996486 0.10743095 0.08223036 0.107162364
0001f0 11 b1 43 bd 35 16 51 3d fd 22 b7 bd 66 2e ce 3d
       -0.047776286 0.05104657 -0.0894222 0.100674435
000200 fa 0d ca bd e0 bf 5b be c4 72 bb 3c c1 16 20 3e
       -0.09865947 -0.21459913 0.022881873 0.1563368
000210 27 f2 33 3d 81 6e e1 bd d8 63 de bd d3 45 c7 bd
       0.043932106 -0.11007405 -0.108588874 -0.09730115
000220 f2 c7 e1 3c b3 c5 20 bd f3 74 10 3c fe 89 9d bd
       0.027561162 -0.03925104 0.008816945 -0.076923355
000230 d2 fc 8c 3d f2 82 aa bd fa da 21 3e c3 04 0a be
       0.06884159 -0.08325757 0.15806189 -0.13478379
000240 12 24 2a be f9 b3 10 be 97 e6 cf bd 06 35 6a 3b
       -0.16615322 -0.14131154 -0.101514034 0.003573717
000250 40 4f b5 3d e6 4e f4 bd 70 86 9e bd 4d 35 12 3e
       0.08853006 -0.11929111 -0.07740486 0.14278145
000260 ae 6b 5c bd 5a 82 a6 3d 0c ed 49 3d c9 06 ca 3d
       -0.05381363 0.08130331 0.04929833 0.098645754
000270 bf a3 8a 3d 44 fc 62 3c 13 3b b5 bd cd 64 1b be
       0.06769513 0.01385409 -0.08849158 -0.15175171
000280 7f d7 1d 3e 0e 0c 42 3e 76 cc cc bc b0 4f 4b be
       0.15414236 0.18949911 -0.024999838 -0.19854617
000290 8d 2b ba ba 8d 55 15 3e e4 3e 5c bd 71 a7 c1 bd
       -0.0014203653 0.14583416 -0.053770915 -0.09455765
0002a0 83 b4 ce bd 6f be 0a be b6 e8 8b 3d 9c 7c 41 bd
       -0.10093024 -0.13549207 0.068314955 -0.047237977
0002b0 e8 31 1a 3d a1 bf 23 3d 5a 51 b7 bd c7 49 4a bd
       0.03764525 0.039977673 -0.089510635 -0.049386766
0002c0 ef c5 07 be 19 5c 34 3c ee b5 bd 3d 3e 53 8b bd
       -0.132591 0.011008286 0.09263216 -0.068029866
0002d0 b9 d3 bf bc 38 aa af bc 4e e1 32 3d b2 0d 94 bb
       -0.023416387 -0.021443471 0.0436719 -0.004518234
0002e0 72 4f b9 bd 9f 63 dc 3d 44 a3 e8 bc 37 1e ed bd
       -0.09048356 0.10761189 -0.028398164 -0.11578029
0002f0 80 32 1f bc e7 7e a2 bd 20 21 28 be 5d 12 27 be
       -0.00971663 -0.07934361 -0.16418886 -0.16315599
000300 d6 aa a3 bb 34 f4 e0 3d d0 31 ba bd dd c9 a5 bd
       -0.0049947305 0.10984078 -0.09091532 -0.08095143
000310 2a dd c4 3d ab b2 31 be dc 2b 5e 3e 2a 2e 87 bc
       0.09612496 -0.17353313 0.21696419 -0.016501505
000320 e6 c4 1c be 8d d2 0d be 9c 2b 8f bd 07 21 10 3e
       -0.15309486 -0.1384985 -0.0699074 0.14075099
000330 cf cf 33 be 93 a1 7f 3c 80 a1 08 3d 68 67 ad 3d
       -0.17559741 0.015602487 0.033357143 0.08466989
000340 de c1 0a 3e 9a f8 36 3e 83 05 35 3d 13 23 79 bd
       0.13550517 0.17868271 0.04419471 -0.060824465
000350 c5 ea 2f bd c8 9e d0 3d 8c c8 6e 3d 0e 72 00 3e
       -0.042948503 0.10186535 0.058296725 0.12543508
000360 b5 13 43 3d 22 89 07 be 21 f4 bd bd 8c e9 2d 3e
       0.047626216 -0.13235906 -0.092750795 0.16983622
000370 bb c3 f1 bd 4d 55 47 3d 97 fe fb bd 99 24 27 be
       -0.11804911 0.048665334 -0.123044185 -0.16322555
000380 cf 7a 97 3d 02 42 5f bb a0 10 15 3e f7 b0 02 3c
       0.07396471 -0.0034066443 0.14557123 0.007976762
000390 31 b7 c7 ba 87 2b a0 3d 63 be 11 3b 95 92 9a 3d
       -0.001523709 0.07820802 0.0022238723 0.075474896
0003a0 c5 93 07 3e e4 b6 8d 3d 42 f1 22 3e 94 e5 11 bd
       0.13239963 0.06919649 0.15912345 -0.035619333
0003b0 5b b7 fd 3d 26 33 0a be 25 73 d2 3d 5c 48 22 bc
       0.12388488 -0.13496074 0.10275868 -0.009904947
0003c0 ec e6 6a bd 75 0a c0 bd 33 3d 0e 3e b3 bd 79 bd
       -0.05734913 -0.093769945 0.13890533 -0.060971927
0003d0 61 01 ab 3d 8e 0b a8 bd e8 a0 1a be 2c 54 e9 bc
       0.083498724 -0.08205329 -0.15100443 -0.02848252
0003e0 4c b5 2e 3e 6b d9 5d 3d 63 03 f1 bd 17 0b de 3d
       0.17061347 0.054162424 -0.11768224 0.10841959
0003f0 a9 a2 41 3d 74 09 fd 3d a4 99 29 be 53 09 6e be
       0.047274265 0.12355319 -0.16562515 -0.23245744

dnn/logits/MatMul f4 [1, 64]
000000 90 f1 63 3e 67 83 b6 be 2f 28 41 be b7 f7 68 be
       0.22260118 -0.35647127 -0.18862985 -0.22750746
000010 2e 2e 89 3e c2 ee 8c be 51 ba 33 be 95 55 90 3e
       0.26793045 -0.27525908 -0.17551543 0.28190294
000020 a7 d2 8a be b0 75 7e be a0 99 65 be d9 6c 95 3e
       -0.2711384 -0.24849582 -0.22421885 0.29184607
000030 98 81 71 be 04 ad a4 3e 2c 55 a4 be 49 95 a2 be
       -0.23584592 0.3216325 -0.3209623 -0.3175452
000040 a4 cb 1e bd 1c d7 1c be ce f0 b4 be 5a d9 92 3d
       -0.038768426 -0.15316433 -0.3533997 0.07170363
000050 bd 12 7b be 11 e8 39 bd 14 bb 8f be fe 1b 8a be
       -0.24518867 -0.04538733 -0.28072417 -0.2697448
000060 30 87 a4 3e 33 46 6e 3e a4 ee 60 be fb 33 08 be
       0.3213439 0.23268966 -0.21966034 -0.13301079
000070 d4 86 68 be 93 5d 6b bd 8c 78 95 be 25 dc cb 3e
       -0.22707683 -0.057462286 -0.29193532 0.39816394
000080 61 e7 47 bd 4c 43 c4 3d 34 5a 9c 3e 61 b0 a0 be
       -0.048804644 0.09583148 0.3053757 -0.31384566
000090 0b e3 99 3e 9c 5e ad 3e 5a ce 7a 3e 93 97 4f be
       0.30056033 0.33861244 0.2449278 -0.20272665
0000a0 90 b1 1d 3e 26 c1 86 3d a8 b6 e6 3e 6e 28 52 be
       0.15399766 0.06579809 0.4506123 -0.20523235
0000b0 41 a1 8d be 3c 4f bd bc c7 17 b2 3e 42 58 33 3c
       -0.2766209 -0.023109071 0.34783766 0.010946335
0000c0 62 0d 11 be e2 5a a8 be 2b 44 5b 3e ff 2d b3 3d
       -0.14165261 -0.32881838 0.21412723 0.087490074
0000d0 0a 25 d6 3c 84 4e 8b be a7 01 b7 3e 56 26 83 3d
       0.026140708 -0.2720834 0.35743448 0.064037964
0000e0 b2 61 a6 3e 18 d4 67 be 97 b1 36 be 15 b6 96 be
       0.3249641 -0.22639501 -0.17841183 -0.29435793
0000f0 92 0f 74 3e 39 46 4b be c4 00 06 3b b3 3c d9 3d
       0.23834065 -0.19851007 0.0020447234 0.106072806
